log/Attention/Attention/trainedModel_0.pth (torch, 233236 bytes, 23 tensors)

emb.conv1x1.0.weight f4 [128, 128, 1, 1]
0.10076116 -0.007382393 -0.027535774 0.119878106 -0.15189406 -0.15849608 0.063606165 -0.1018419
-0.06653786 -0.23737106 -0.058646966 -0.08957542 0.11655926 0.19291063 -0.05099818 0.027094884
-0.02047118 0.03071886 0.07986433 0.027518095 -0.061787672 -0.0878903 -0.05780731 0.04747736
-0.014541773 0.2420755 -0.011934834 0.29739925 -0.2371118 -0.07160032 -0.02603272 0.097388886
0.026198255 0.2523513 -0.10419296 0.28138387 0.0628637 0.0015231783 0.012522219 -0.060544215
0.18620673 -0.17129004 0.05746756 0.10221038 -0.037747912 0.0753483 0.23729555 -0.052940007
0.07893358 0.034796648 -0.02179762 -0.048698504 -0.2017239 -0.09648016 -0.048360813 0.09008253
0.20750605 0.014932195 0.0032767833 -0.097934246 -0.06339355 -0.11145344 -0.04176913 0.19498686
0.1111985 -0.03619153 -0.10449931 0.13355549 -0.17477135 0.17949486 -0.11624254 0.04425551
0.08984189 -0.23531236 -0.20886393 0.06459727 -0.03547631 0.15117235 0.069656484 0.06144825
-0.2380654 0.013081107 -0.124861196 -0.026253989 0.21450934 -0.04080283 -0.21922149 0.01600985
-0.0010170988 -0.037794176 -0.07258858 0.1048487 0.14999014 0.029290104 -0.08006771 -0.023541445
-0.037568152 -0.18267798 0.10159853 0.13177559 0.122864805 -0.17213042 -0.03904665 0.16190103
-0.26078916 0.13994502 0.051060036 0.13177384 -0.11259484 -0.026536858 0.11468077 0.037192397
-0.05279479 -0.11282283 0.072421625 0.17071013 -0.13391621 0.0697022 0.16423167 0.19374347
0.10493406 0.014664865 0.04738364 -0.10673611 0.33480966 -0.1398951 -0.05884396 0.027456433
0.07167768 -0.043660544 -0.05483541 0.085279174 0.15211122 -0.13010809 -0.40692097 0.14798558
-0.16661604 0.2221929 -0.08324486 0.24568157 -0.20410928 -0.084917665 0.076211 -0.13140172
-0.28302816 -0.03799216 0.07170508 0.024438074 0.009132826 0.12343887 -0.08452466 -0.0049291714
-0.006241545 0.031201296 -0.017462822 0.1980244 -0.015061447 0.06955938 -0.18892878 0.025277073
0.09659325 0.0531424 0.10435446 -0.09227334 -0.20284072 0.002303524 -0.11803907 -0.02033502
-0.07618753 0.13977127 0.05738078 -0.095820844 0.048128784 0.013318195 0.19570465 -0.004760365
-0.09847585 -0.050297968 -0.2646009 0.22824045 -0.12917534 0.17104463 -0.19087833 -0.050782744
0.044115927 0.0008648762 -0.12775566 0.14350052 0.0017260376 0.19237998 -0.13695854 -0.06587
-0.105065264 0.0087743625 -0.014211471 0.20127949 -0.085192636 -0.017997129 0.059989925 0.0068501565
-0.20796274 -0.06876915 -0.13444763 -0.20831391 0.034836538 0.049810342 -0.046143487 0.05267606
-0.11943772 -0.11678838 0.11253955 -0.05808659 0.121587135 -0.09630755 -0.074977666 0.07156611
0.02480247 -0.09057837 -0.15109865 0.051179763 -0.18261184 0.031185267 -0.12526862 -0.16029848
0.07541669 -0.12308675 0.022497864 0.16240221 0.23916905 -0.20226707 -0.07515741 0.035147734
-0.08157563 -0.015489451 -0.13096811 -0.044951927 0.23367625 0.04042907 -0.20835827 0.06412624
-0.010863516 -0.09603274 0.10245487 0.18567064 -0.06447345 0.019246513 -0.064967856 -0.124663346
0.24624304 0.20999965 0.23385553 -0.10229584 -0.2831462 -0.029705992 -0.20281516 -0.023130383
00000000: de5b ce3d 00e8 f1bb b492 e1bc a782 f53d
00000010: 1e8a 1bbe cc4c 22be f343 823d 7c92 d0bd
00000020: 0045 88bd 6611 73be cd37 70bd 5173 b7bd
00000030: 9fb6 ee3d 5d8a 453e 78e3 50bd 17f6 dd3c
00000040: 2db3 a7bc 1ea6 fb3c e98f a33d a16d e13c
00000050: 1215 7dbd d4ff b3bd 5cc7 6cbd 9f77 423d
00000060: 9e40 6ebc a4e2 773e 528a 43bc b744 983e
00000070: 70cd 72be 30a3 92bd 9242 d5bc d373 c73d
00000080: b99d d63c 3134 813e 1e63 d5bd 8c11 903e
00000090: afbe 803d 62a5 c73a fe29 4d3c 36fd 77bd
000000a0: faac 3e3e a866 2fbe 1b63 6b3d ad53 d13d
000000b0: 8e9d 1abd 3650 9a3d 9bfd 723e 9fd7 58bd
000000c0: eea7 a13d ee86 0e3d ec90 b2bc 1578 47bd
000000d0: b690 4ebe 6497 c5bd fd15 46bd 317d b83d
000000e0: 777c 543e 2aa6 743c 4dbf 563b c091 c8bd
000000f0: 7ad4 81bd b341 e4bd 1b16 2bbd a3aa 473e
00000100: 0abc e33d 923d 14bd bc03 d6bd c5c2 083e
00000110: 43f7 32be 80cd 373e 9210 eebd 4445 353d
00000120: 06ff b73d b9f5 70be 6de0 55be 934b 843d
00000130: 9b4f 11bd edcc 1a3e 0fa8 8e3d 29b1 7b3d
00000140: 6bc7 73be 2452 563c 3ab7 ffbd 9b12 d7bc
00000150: 56a8 5b3e de20 27bd 997b 60be 1727 833c
00000160: 2c50 85ba 11ce 1abd 52a9 94bd eaba d63d
00000170: 0497 193e cdf1 ef3c 8afa a3bd fdd9 c0bc
00000180: 10e1 19bd f00f 3bbe e412 d03d 2ef0 063e
00000190: 8ba0 fb3d f542 30be 61ef 1fbd 62c9 253e
000001a0: 2886 85be bf4d 0f3e 5424 513d b9ef 063e
000001b0: 2098 e6bd d363 d9bc c0dd ea3d 0e57 183d
000001c0: 5a3f 58bd a80f e7bd ca51 943d a3ce 2e3e
000001d0: 5521 09be 07c0 8e3d 592c 283e b064 463e
000001e0: abe7 d63d e744 703c 5915 423d 7698 dabd
000001f0: 2c6c ab3e a940 0fbe 5d06 71bd 50ec e03c
00000200: bfcb 923d 66d5 32bd 189b 60bd d9a6 ae3d
00000210: 0bc3 1b3e 0e3b 05be f257 d0be 8889 173e
00000220: 659d 2abe 8986 633e 487c aabd f393 7b3e
00000230: 0602 51be 50e9 adbd 8314 9c3d 2c8e 06be
00000240: 11e9 90be ab9d 1bbd 1dda 923d 5b32 c83c
00000250: d9a1 153c 85cd fc3d 441b adbd e384 a1bb
00000260: e085 ccbb dc99 ff3c 310e 8fbc e9c6 4a3e
00000270: 4ac4 76bc 2675 8e3d 8c76 41be dd11 cf3c
00000280: afd2 c53d d8ab 593d cbb7 d53d cef9 bcbd
00000290: 7ab5 4fbe b8f6 163b 78be f1bd a195 a6bc
000002a0: 3508 9cbd 3320 0f3e 1c08 6b3d b83d c4bd
000002b0: b022 453d 8f34 5a3c cd66 483e d6fc 9bbb
000002c0: b5ad c9bd 3e05 4ebd c579 87be ddb7 693e
000002d0: 8a46 04be 5326 2f3e 9c75 43be 9101 50bd
000002e0: e7b2 343d dcb8 623a 61d2 02be cdf1 123e
000002f0: 363c e23a 42ff 443e dc3e 0cbe dae6 86bd
00000300: 752c d7bd 58c2 0f3c 3bd7 68bc 361c 4e3e
00000310: 7a79 aebd b76e 93bc ffb7 753d 4777 e03b
00000320: 2ff4 54be d7d6 8cbd a4ac 09be 3e50 55be
00000330: c2b0 0e3d ee05 4c3d f400 3dbd dac2 573d
00000340: c39b f4bd bf2e efbd 237b e63d 34ec 6dbd
00000350: ad02 f93d e53c c5bd e48d 99bd 4191 923d
00000360: 8d2e cb3c 2781 b9bd 9bb9 1abe dfa1 513d
00000370: 99fe 3abe 3f78 ff3c 6b46 00be 4925 24be
00000380: 1174 9a3d e814 fcbd 714d b83c c44c 263e
00000390: bbe8 743e 191f 4fbe 21ec 99bd 12f7 0f3d
000003a0: 2011 a7bd 77c7 7dbc 811c 06be 831f 38bd
000003b0: d448 6f3e f498 253d df5b 55be 9e54 833d
000003c0: e3fc 31bc d0ac c4bd dcd3 d13d 7220 3e3e
000003d0: a80a 84bd ddaa 9d3c de0d 85bd 7f4f ffbd
000003e0: 2327 7c3e 260a 573e d377 6f3e 7b80 d1bd
000003f0: 8af8 90be fb59 f3bc c7ae 4fbe ee7b bdbc

emb.conv1x1.1.weight f4 [128, 128, 1, 1]
0.053844806 0.23071004 -0.08595675 -0.1085088 -0.14957194 0.10110242 -0.0628705 0.12848756
-0.042565506 -0.25358766 -0.03395654 -0.105845496 0.14875135 0.08684723 -0.045994338 0.06199833
-0.14478289 0.009852819 0.13365963 -0.092435345 0.20778766 -0.14452262 0.12755573 -0.05589904
-0.2603829 -0.15891105 -0.054963548 0.10261793 0.09781642 -0.10610655 -0.098520465 0.13655733
-0.14862993 0.19502407 0.069363676 0.18707134 0.070718355 0.027409999 0.05185429 0.03376205
-0.054639846 0.23445377 0.01704123 -0.17399381 0.061761264 -0.054476146 0.011171573 -0.025435816
-0.06873813 -0.08631502 -0.0249792 0.13645644 -0.060949996 -0.19672585 0.16992958 -0.036270004
0.019806817 -0.2283654 -0.16754273 -0.057055783 -0.035682816 0.09823142 0.13399455 0.05535105
-0.02597813 0.21664129 -0.07771627 0.11709721 -0.02723313 0.22878005 0.14088286 -0.14063275
0.160417 0.17793007 0.055568982 -0.08413425 0.05700117 -0.12433552 -0.19007885 0.095013365
-0.09157624 0.20016176 -0.09876382 0.066695474 0.091868676 0.10807693 -0.14021379 0.0052031963
0.14042822 0.04550004 -0.01696966 0.14601721 -0.021414902 0.14997838 -0.14013185 -0.027876612
-0.06607385 -0.2771561 0.10977741 0.083099194 -0.11959883 -0.21131457 0.053409126 -0.05493888
-0.049391095 -0.16269235 -0.024074165 0.18864249 -0.065984055 0.022539398 0.0981077 -0.045879185
0.043883767 0.057462648 -0.16241567 0.12238287 -0.05455804 0.1155379 0.032146398 -0.013441967
0.11106853 -0.1657651 -0.18041073 -0.06917147 0.00014920585 -0.115943335 0.22203515 -0.15891954
0.03877561 -0.13570377 0.068964876 0.03319306 0.010546563 -0.07477638 0.051885467 0.06913192
0.12180491 0.048150975 0.1381828 -0.18619761 -0.13076098 -0.037424557 -0.17392375 0.28599262
-0.16626848 -0.09572242 -0.0083533265 -0.037648167 -0.061095312 -0.14507063 -0.025717488 -0.14798008
0.016370142 -0.025771566 -0.13810971 -0.17151558 0.067683324 -0.031170383 -0.06947381 -0.17056625
-0.009696789 -0.027375368 0.013110346 -0.009777716 -0.09673337 -0.22102238 0.05017552 0.013776437
0.038667634 -0.0076514157 -0.0034949402 0.010383105 0.13908538 -0.13636893 0.13605614 0.2618282
-0.05660641 0.021701895 0.256432 -0.08638027 0.27453205 0.17359504 -0.13624777 -0.09380895
0.024311895 -0.030897843 -0.112921394 0.07510615 0.052479044 0.17956236 0.11777469 0.10471366
0.12209596 -0.021480698 -0.014942093 0.09254929 0.018352661 -0.22061804 -0.046451483 0.10454504
-0.0929584 -0.21093756 -0.043986183 0.25196192 0.19953682 0.13792942 -0.12948488 0.078023456
0.14101665 -0.18780364 0.058626704 -0.07659687 -0.2092572 0.11290231 -0.007492981 -0.007174351
-0.0495297 -0.23874696 -0.24198933 0.134372 0.1230865 0.04207147 0.023626959 -0.19167162
0.10635603 -0.051536746 -0.015705828 -0.11373707 -0.17729847 0.141022 -0.28085843 -0.03542241
-0.13523133 -0.08244411 -0.054936595 0.13106589 -0.024970436 0.021214668 0.07833328 -0.10987668
0.097016685 -0.04074506 -0.0026490183 -0.052273337 -0.053127803 -0.24689564 -0.28113714 0.04034904
-0.022497147 0.21722785 0.106174685 0.028629176 -0.0893094 -0.13933976 -0.00439155 0.15373953
00000000: 5f8c 5c3d 413f 6c3e 180a b0bd dd39 debd
00000010: 6329 19be c90e cf3d 40c2 80bd 3e92 033e
00000020: 2b59 2ebd 3ed6 81be 0316 0bbd 86c5 d8bd
00000030: 4652 183e f6dc b13d 8f64 3cbd f6f1 7d3d
00000040: f741 14be b86d 213c 12de 083e be4e bdbd
00000050: 4ac6 543e bdfd 13be f89d 023e 64f6 64bd
00000060: e850 85be 94b9 22be 7521 61bd 5929 d23d
00000070: fa53 c83d 644e d9bd 19c5 c9bd afd5 0b3e
00000080: 7232 18be 64b4 473e 8b0e 8e3d a18f 3f3e
00000090: c9d4 903d ef8a e03c 2a65 543d 134a 0a3d
000000a0: 08ce 5fbd a614 703e 0d9a 8b3c 6f2b 32be
000000b0: 61f9 7c3d 6122 5fbd f908 373c c65e d0bc
000000c0: 94c6 8cbd eec5 b0bd 2ea1 ccbc 3dbb 0b3e
000000d0: b4a6 79bd 8072 49be 0502 2e3e db8f 14bd
000000e0: e841 a23c 9fd8 69be 5290 2bbe 53b3 69bd
000000f0: 2528 12bd 8e2d c93d de35 093e c8b7 623d
00000100: 16d0 d4bc 37d7 5d3e b529 9fbd a9d0 ef3d
00000110: 0318 dfbc 5145 6a3e 9943 103e 0802 10be
00000120: 5b44 243e 4d33 363e 4d9c 633d 944e acbd
00000130: 0f7a 693d 9fa3 febd 08a4 42be 5e96 c23d
00000140: 538c bbbd 34f7 4c3e b044 cabd a397 883d
00000150: a525 bc3d 7057 dd3d 3494 0fbe 937f aa3b
00000160: 6acc 0f3e 405e 3a3d f503 8bbc 8985 153e
00000170: 4e6e afbc ef93 193e b97e 0fbe 7e5d e4bc
00000180: ba51 87bd 68e7 8dbe fbd2 e03d e92f aa3d
00000190: 3bf0 f4bd d962 58be 87c3 5a3d 9707 61bd
000001a0: 514e 4abd d398 26be 2f37 c5bc 7f2b 413e
000001b0: a622 87bd 8ba4 b83c b1ec c83d d0eb 3bbd
000001c0: 77bf 333d f45d 6b3d 4b50 26be dfa3 fa3d
000001d0: 4078 5fbd 229f ec3d f1ab 033d b23b 5cbc
000001e0: e677 e33d 54be 29be 97bd 38be c6a9 8dbd
000001f0: 2474 1c39 b373 edbd 2f5d 633e cebb 22be
00000200: 2dd3 1e3d eef5 0abe 753d 8d3d 72f5 073d
00000210: 7ecb 2c3c 5c24 99bd db85 543d 0995 8d3d
00000220: da74 f93d f539 453d cb7f 0d3e 96aa 3ebe
00000230: 35e6 05be 7e4a 19bd 1119 32be a06d 923e
00000240: 4942 2abe 1e0a c4bd 64dc 08bc f734 1abd
00000250: 143f 7abd 658d 14be 7bad d2bc 1788 17be
00000260: ad1a 863c e41e d3bc a26c 0dbe c8a1 2fbe
00000270: 8e9d 8a3d 0859 ffbc 4948 8ebd eba8 2ebe
00000280: 48df 1ebc 4f42 e0bc c7cc 563c b732 20bc
00000290: 251c c6bd b153 62be d984 4d3d 91b6 613c
000002a0: f461 1e3d bab8 fabb 5e0b 65bb e61d 2a3c
000002b0: 666c 0e3e 4ca4 0bbe 4d52 0b3e 590e 863e
000002c0: 1fdc 67bd 2cc8 b13c 0e4b 833e 24e8 b0bd
000002d0: 778f 8c3e e6c2 313e 8984 0bbe e81e c0bd
000002e0: bd29 c73c 791d fdbc 5543 e7bd 41d1 993d
000002f0: 44f4 563d 32df 373e db33 f13d 1e74 d63d
00000300: 720d fa3d 4af8 afbc aecf 74bc 7b8a bd3d
00000310: 5258 963c b2e9 61be e943 3ebd b61b d63d
00000320: f960 bebd 0400 58be db2a 34bd 2701 813e
00000330: 6153 4c3e 5f3d 0d3e af97 04be c3ca 9f3d
00000340: ab66 103e 994f 40be 8e22 703d d2de 9cbd
00000350: 8547 56be 5439 e73d ae87 f5bb d116 ebbb
00000360: a8df 4abd 157a 74be 0dcc 77be d098 093e
00000370: c614 fc3d 2253 2c3d 538d c13c 9145 44be
00000380: 31d1 d93d 3218 53bd 82a9 80bc fbee e8bd
00000390: bb8d 35be 1268 103e adcc 8fbe 1717 11bd
000003a0: 157a 0abe 75d8 a8bd 3205 61bd 2336 063e
000003b0: cd8e ccbc 62ca ad3c 336d a03d 0607 e1bd
000003c0: afb0 c63d 4be4 26bd 279b 2dbb 911c 56bd
000003d0: 8a9c 59bd 36d2 7cbe 35f1 8fbe 0945 253d
000003e0: f04b b8bc fa70 5e3e 1d72 d93d bc87 ea3c
000003f0: d9e7 b6bd 15af 0ebe fee6 8fbb e56d 1d3e

emb.conv1x1.2.weight f4 [128, 128, 1, 1]
0.114876054 -0.11238068 0.12509342 0.053204425 -0.16560724 -0.048504606 -0.008926698 -0.10661056
-0.31625238 -0.15436013 -0.17382772 0.13825263 -0.10563275 0.31842306 -0.06971707 -0.20601194
-0.1395665 -0.09317109 -0.16391633 -0.12577136 -0.03163243 0.10221645 0.063256234 -0.040486764
-0.07794297 -0.09951759 -0.14750159 -0.055242527 -0.07837177 0.07680885 -0.13995259 -0.057239622
0.15971407 -0.092589624 0.17160301 0.11622554 -0.13032375 -0.16296756 -0.07087986 -0.0823114
-0.11506314 -0.10710229 -0.13270478 -0.05543686 -0.2225917 -0.037745997 -0.11141042 -0.07042159
0.19203009 -0.1277752 -0.24713804 -0.16825978 0.05652484 0.023005042 0.03547462 -0.03980666
-0.06830865 0.19973132 0.13517705 -0.16217943 0.08027758 -0.070322335 -0.117195494 -0.11140295
-0.12666918 -0.004639094 -0.10869346 -0.10253908 -0.025171688 -0.152684 -0.105686285 0.03304027
-0.13592874 0.018479502 0.091273285 -0.16670173 -0.2195278 -0.12651707 -0.023184942 -0.16408724
-0.06850779 -0.03858817 -0.095392354 -0.1213809 -0.22320804 -0.14072083 -0.16789718 -0.01832644
-0.19610731 0.15025434 -0.062136482 -0.17728338 0.16990747 0.005720352 0.077553876 0.07625317
-0.14958122 -0.18931523 -0.10484051 0.04374127 -0.022197478 -0.018932074 -0.100016765 0.13364813
0.1016476 -0.048830338 -0.012576328 0.12883434 -0.09975488 0.15063368 -0.05716744 -0.041742682
-0.0900088 -0.06703265 0.039900336 0.16642831 -0.14285405 -0.062030267 -0.08307709 -0.24971177
-0.029831968 -0.016925793 0.18879716 -0.08633873 0.029559635 -0.042569287 -0.13084498 -0.047583062
-0.16505495 -0.2039006 0.1408372 0.00064326805 0.10331302 -0.009598377 -0.045143843 0.00020099361
-0.0066369646 -0.1878093 -0.1482377 0.11870651 -0.16248803 -0.18256502 -0.1383457 -0.24612491
-0.024775952 -0.16447426 -0.009511633 -0.09301723 -0.06434174 -0.024820702 -0.22207631 -0.05721293
-0.003880688 0.017214917 -0.15218483 -0.03075178 0.04725807 -0.057139833 -0.13930629 0.0008503942
-0.07724475 -0.06572787 -0.113378875 -0.21953061 -0.08183952 -0.037432905 -0.055821765 -0.015113834
-0.19017678 -0.1770349 0.062878035 -0.19793828 -0.020819187 -0.043761846 -0.011500343 0.13499922
0.18546788 0.01764817 0.13821423 0.057074763 0.003274002 -0.14513637 -0.1296331 -0.23661976
-0.16709149 -0.17972144 -0.23909329 -0.0038391852 0.035654303 0.020768726 0.12656379 -0.14163099
-0.082672045 -0.07978945 0.25259963 -0.11591342 0.031747725 -0.120321386 -0.037835605 -0.15398794
-0.15816985 0.08604306 -0.12913567 -0.10982076 0.082523465 -0.040421333 0.062380865 0.05551162
-0.09691028 0.054089718 0.2791246 -0.10368435 0.026069881 0.026801586 0.011237938 -0.20033506
0.29603562 -0.03617971 -0.11915055 0.11331269 -0.14582098 -0.26025206 -0.07639993 -0.039575238
-0.03174387 0.05773442 0.02839592 -0.038644973 0.0008179803 0.024522515 0.08558464 -0.1118151
-0.14432012 0.012573311 0.08436869 0.2057148 0.115447104 -0.002727147 -0.046131074 -0.13828324
-0.08274051 -0.037277933 -0.076368146 -0.046398047 -0.11105446 -0.052343994 -0.07687057 -0.07602902
-0.021277895 0.16542353 0.021653328 -0.1266913 -0.1254928 0.04855269 0.12330583 -0.012583964
00000000: 2344 eb3d d827 e6bd 7d18 003e e2ec 593d
00000010: f294 29be c4ac 46bd 4941 12bc a356 dabd
00000020: d5eb a1be 9510 1ebe e5ff 31be 1992 0d3e
00000030: fc55 d8bd 5908 a33e d3c7 8ebd cbf4 52be
00000040: 85ea 0ebe 7cd0 bebd afd9 27be 35ca 00be
00000050: 0291 01bd dc56 d13d 7c8c 813d 73d5 25bd
00000060: 90a0 9fbd e1cf cbbd a80a 17be fd45 62bd
00000070: 6181 a0bd f54d 9d3d bb4f 0fbe 1874 6abd
00000080: 168c 233e a19f bdbd b3b8 2f3e a807 ee3d
00000090: 9773 05be f8e0 26be 7629 91bd e192 a8bd
000000a0: 39a6 ebbd 7258 dbbd c3e3 07be c311 63bd
000000b0: 14ef 63be 8c9b 1abd 252b e4bd 3239 90bd
000000c0: 89a3 443e 81d7 02be c111 7dbe 4b4c 2cbe
000000d0: 9786 673d 1275 bc3c d64d 113d 4f0c 23bd
000000e0: 68e5 8bbd 5e86 4c3e da6b 0a3e 5d12 26be
000000f0: 9268 a43d 2805 90bd 3104 f0bd 3b27 e4bd
00000100: 91b5 01be 8b03 98bb ad9a debd 0200 d2bd
00000110: db34 cebc 3259 1cbe 0d72 d8bd 3c55 073d
00000120: e730 0bbe 5362 973c 7ded ba3d dcb3 2abe
00000130: e5cb 60be b18d 01be 59ee bdbc 7c06 28be
00000140: d04d 8cbd a10e 1ebd 115d c3bd 8d96 f8bd
00000150: a690 64be 1f19 10be 3ded 2bbe 5521 96bc
00000160: 5bd0 48be 46dc 193e d382 7ebd c689 35be
00000170: 39fc 2d3e ca71 bb3b 91d4 9e3d 9f2a 9c3d
00000180: d22b 19be dadb 41be 9fb6 d6bd 0c2a 333d
00000190: 7cd7 b5bc 7017 9bbc 97d5 ccbd 0edb 083e
000001a0: 9e2c d03d 5202 48bd f10c 4ebc 26ed 033e
000001b0: 494c ccbd b73f 1a3e 6828 6abd 60fa 2abd
000001c0: 8956 b8bd 6a48 89bd 896e 233d 2f6c 2a3e
000001d0: 5548 12be 7313 7ebd 5224 aabd 71b4 7fbe
000001e0: 2c62 f4bc f6a7 8abc 0b54 413e 5cd2 b0bd
000001f0: 0c27 f23c 225d 2ebd 3afc 05be 75e6 42bd
00000200: 2a04 29be 52cb 50be a137 103e fda0 283a
00000210: c795 d33d 8342 1dbc c0e8 38bd d0c1 5239
00000220: e57a d9bb 1551 40be a0cb 17be 661c f33d
00000230: 4363 26be 53f2 3abe 7faa 0dbe 2b08 7cbe
00000240: f0f6 cabc f16b 28be aed6 1bbc d17f bebd
00000250: 9ac5 83bd c954 cbbc f967 63be 1b58 6abd
00000260: 2453 7ebb 4c06 8d3c 57d6 1bbe 28eb fbbc
00000270: ae91 413d 750b 6abd 4fa6 0ebe fdec 5e3a
00000280: 7f32 9ebd 559c 86bd 2f33 e8bd a2cc 60be
00000290: 7a9b a7bd 3f53 19bd 5da5 64bd 04a0 77bc
000002a0: b4bd 42be a348 35be 33c6 803d 55b0 4abe
000002b0: 008d aabc 9f3f 33bd ef6b 3cbc 3c3d 0a3e
000002c0: 4beb 3d3e e592 903c 0888 0d3e 3ac7 693d
000002d0: a490 563b a19e 14be 8abe 04be 734c 72be
000002e0: 081a 2bbe e608 38be dfd4 74be d79a 7bbb
000002f0: 3f0a 123d 2d23 aa3c f099 013e b707 11be
00000300: f64f a9bd a768 a3bd bd54 813e 0464 edbd
00000310: e709 023d 0f6b f6bd 82f9 1abd 04af 1dbe
00000320: 47f7 21be 5837 b03d 243c 04be b5e9 e0bd
00000330: 1002 a93d d790 25bd 1483 7f3d 2760 633d
00000340: e678 c6bd 2e8d 5d3d 6be9 8e3e 7658 d4bd
00000350: 8190 d53c 008f db3c 541f 383c a224 4dbe
00000360: fb91 973e 2d31 14bd 3405 f4bd 7c10 e83d
00000370: 1852 15be c23f 85be 9177 9cbd a519 22bd
00000380: dc05 02bd ed7a 6c3d 8f9e e83c 314a 1ebd
00000390: bb6d 563a 71e3 c83c 0047 af3d 51ff e4bd
000003a0: a7c8 13be 4a00 4e3c 7ec9 ac3d e7a6 523e
000003b0: 886f ec3d efb9 32bb f0f3 3cbd 1f9a 0dbe
000003c0: db73 a9bd bfb0 18bd e766 9cbd e10b 3ebd
000003d0: 8570 e3bd a866 56bd 516e 9dbd 1ab5 9bbd
000003e0: fb4e aebc c964 293e 5262 b13c 5dbb 01be
000003f0: 2f81 00be 2fdf 463d c487 fc3d f82c 4ebc

emb.batchnorm.0.weight f4 [128]
1.0267471 0.831521 0.9307228 1.1871332 1.00157 0.971452 1.0645936 1.0314405
1.3915226 1.1286557 1.098142 0.9663087 1.0175264 0.954808 1.0937712 1.0896871
0.9977884 0.96304846 1.0259886 0.9479467 0.8847891 1.0042188 1.1389769 0.8077644
1.0173314 0.8304209 1.1001116 0.9885485 0.9818552 0.96734643 1.1732948 1.0778311
1.0240263 1.0586814 0.94117737 0.8704294 1.0414588 1.0935551 1.0976242 0.94647807
0.865277 0.85901755 1.0006429 0.9143521 1.0119057 1.0781342 0.8323816 0.8364679
0.91739756 0.909032 1.0775316 1.1092969 0.89437526 0.92624605 0.89432466 0.8603564
0.7839655 0.8864466 0.776218 1.0496469 0.9469574 0.94277483 0.9042398 0.9148212
1.1782025 0.8827488 0.93694496 0.8104055 0.84696233 0.95269203 0.9754045 0.83833706
0.9321522 0.84615284 0.81233805 0.97416425 0.93495995 0.8524312 0.8241685 0.93606216
0.9865689 0.91079694 0.87757987 0.89770335 0.92511 1.0699074 1.0082295 0.9386796
0.93700355 0.8278069 0.9713018 0.82875043 0.9011561 0.9344583 0.93477374 0.92929924
0.93653935 0.9030911 0.89395255 0.9850054 0.8758589 0.9068057 0.8342885 0.79333097
0.926222 0.9323585 0.974475 0.7731913 0.8672734 0.9361461 1.0354817 0.92585355
0.8313313 0.8939671 0.79380685 1.0567394 0.8538108 0.929464 0.9300168 0.9158434
1.0385339 0.959627 0.87630415 0.96466076 1.003367 0.8893616 0.95856225 1.0195892
00000000: 736c 833f 8fde 543f d943 6e3f fbf3 973f
00000010: 7233 803f 14b1 783f 9a44 883f 3e06 843f
00000020: 6a1d b23f ca77 903f eb8f 8c3f 0260 773f
00000030: 4e3e 823f 4c6e 743f b200 8c3f de7a 8b3f
00000040: 106f 7f3f 588a 763f 9853 833f a3ac 723f
00000050: 8a81 623f 3e8a 803f ffc9 913f a6c9 4e3f
00000060: ea37 823f 7796 543f 75d0 8c3f 8411 7d3f
00000070: dd5a 7b3f 04a4 773f 862e 963f 5ff6 893f
00000080: 4b13 833f df82 873f 00f1 703f 76d4 5e3f
00000090: 864e 853f 9df9 8b3f f37e 8c3f 634c 723f
000000a0: cb82 5d3f 93e8 5b3f 1115 803f fb12 6a3f
000000b0: 2086 813f 4d00 8a3f f616 553f c322 563f
000000c0: 91da 6a3f 52b6 683f 8eec 893f 71fd 8d3f
000000d0: c7f5 643f 761e 6d3f 76f2 643f 5140 5c3f
000000e0: f7b1 483f 2aee 623f 39b6 463f d45a 863f
000000f0: cd6b 723f b159 713f 427c 673f b931 6a3f
00000100: 57cf 963f d3fb 613f a0db 6f3f bc76 4f3f
00000110: 86d2 583f a0e3 733f 1cb4 793f 429d 563f
00000120: 87a1 6e3f 799d 583f 63f5 4f3f d462 793f
00000130: 8959 6f3f ee38 5a3f b5fc 523f c5a1 6f3f
00000140: c88f 7c3f fd29 693f 13a9 603f e3cf 653f
00000150: 02d4 6c3f baf2 883f aa0d 813f 4e4d 703f
00000160: 77df 6f3f 27eb 533f 3ca7 783f fd28 543f
00000170: 2bb2 663f a938 6f3f 554d 6f3f 8ee6 6d3f
00000180: 0bc1 6f3f fa30 673f 13da 643f 5029 7c3f
00000190: 4a38 603f 6b24 683f ee93 553f bd17 4b3f
000001a0: e31c 6d3f 0caf 6e3f 3277 793f ddef 453f
000001b0: a105 5e3f 45a7 6f3f aa8a 843f bd04 6d3f
000001c0: 21d2 543f 07db 643f ed36 4b3f 3d43 873f
000001d0: 5893 5a3f 5af1 6d3f 9515 6e3f b774 6a3f
000001e0: aeee 843f 1daa 753f 7855 603f 02f4 763f
000001f0: 546e 803f 34ad 633f 5664 753f e681 823f

emb.batchnorm.0.bias f4 [128]
-8.525685e-06 3.3996807e-06 -1.6139456e-05 3.2539006e-05 3.93264e-05 9.074103e-06 -9.656824e-06 -1.5596383e-06
8.847022e-06 1.2732566e-05 -3.0136649e-05 2.062711e-05 3.642309e-06 3.4680943e-07 2.0904175e-05 1.2669534e-07
-3.0266348e-05 5.790944e-07 -3.0723018e-06 1.3080432e-05 2.6313079e-05 1.2401122e-05 -1.947454e-05 3.192304e-05
1.5842526e-05 2.4305027e-05 -4.116733e-06 -7.923103e-06 -8.230597e-06 1.6620977e-06 3.9903673e-05 -5.897486e-06
-4.084613e-06 2.2216182e-06 3.0565327e-05 1.7301078e-05 1.3497166e-05 -3.873142e-06 -1.2816317e-05 -1.7329494e-05
2.6877102e-05 -1.329065e-05 1.867178e-05 -2.6571222e-05 -1.0147505e-05 1.44198275e-05 -2.058994e-05 -1.995499e-06
-8.716812e-06 4.520767e-06 5.7930694e-05 -1.931875e-05 -8.62759e-06 -3.8247995e-06 2.0533464e-05 -5.135872e-06
1.2949271e-05 4.57458e-05 -6.1205437e-06 -9.465827e-06 -1.44309415e-05 -2.5958238e-05 -5.950057e-06 -7.6007727e-06
-1.43470215e-05 2.3145358e-06 2.1434153e-05 -1.2277555e-06 1.1018191e-05 7.872262e-06 8.814096e-06 -1.3381354e-05
5.4028083e-06 2.4354467e-06 -2.0492512e-06 3.5909693e-07 -4.043728e-05 3.0753413e-06 -5.222735e-06 -3.5898197e-06
4.6273844e-06 8.492034e-07 -6.129817e-06 2.7956099e-05 2.0247922e-05 3.4564826e-05 6.586459e-06 5.5440387e-06
4.0247833e-06 4.4962317e-06 8.430046e-06 3.7743973e-07 2.3755718e-05 2.0653502e-05 -1.629096e-05 -5.44531e-06
-4.2979436e-06 -1.564833e-05 -1.0689901e-06 -1.0476266e-05 -1.1505428e-05 -9.2461687e-07 4.5442903e-08 -7.896798e-06
1.138794e-05 2.8502086e-06 -1.4507229e-05 -3.0743424e-05 1.561987e-05 -5.171103e-06 -1.913499e-05 -1.05618965e-05
-1.5976122e-05 -1.218148e-06 -3.1393085e-07 1.2640588e-05 -6.458823e-06 -1.842493e-05 2.1432328e-05 -1.4431264e-05
3.7247746e-06 8.297722e-06 -5.5925328e-05 9.663892e-06 -2.162149e-05 4.7517333e-06 2.8038173e-06 1.655603e-05
00000000: 8a09 0fb7 1226 6436 3863 87b7 7e7a 0838
00000010: 67f2 2438 fa3c 1837 be03 22b7 c454 d1b5
00000020: ac6d 1437 f49d 5537 f6cd fcb7 6208 ad37
00000030: 646e 7436 2031 ba34 605b af37 c009 0834
00000040: 7de4 fdb7 1073 1b35 be2d 4eb6 0774 5b37
00000050: e8ba dc37 6a0e 5037 425d a3b7 1ae5 0538
00000060: 91e5 8437 a6e2 cb37 7822 8ab6 78ed 04b7
00000070: 2516 0ab7 3e15 df35 3e5e 2738 05e3 c5b6
00000080: 8f0e 89b6 1c17 1536 4533 0038 c821 9137
00000090: e371 6237 09f6 81b6 aa05 57b7 ce5e 91b7
000000a0: 2376 e137 e8fa 5eb7 58a1 9c37 44e5 deb7
000000b0: 343f 2ab7 b0ec 7137 8fb8 acb7 69ea 05b6
000000c0: 6c3e 12b7 18b1 9736 9cfa 7238 b30e a2b7
000000d0: 38bf 10b7 c756 80b6 473f ac37 ce54 acb6
000000e0: b240 5937 2edf 3f38 125f cdb6 6bcf 1eb7
000000f0: 6c1c 72b7 e4c0 d9b7 9aa6 c7b6 240a ffb6
00000100: fdb3 70b7 6c53 1b36 7ecd b337 5cc9 a4b5
00000110: c5da 3837 1c13 0437 41e0 1337 7a80 60b7
00000120: c549 b536 a870 2336 de85 09b6 e8c9 c034
00000130: 339b 29b8 f661 4e36 f43e afb6 a2e8 70b6
00000140: ee44 9b36 d0f4 6335 baae cdb6 4483 ea37
00000150: 15da a937 b3f9 1038 4101 dd36 ee06 ba36
00000160: a00c 8736 56de 9636 c66e 0d37 eca2 ca34
00000170: 0447 c737 0f41 ad37 92a8 88b7 dbb6 b6b6
00000180: 0e37 90b6 8844 83b7 387a 8fb5 38c3 2fb7
00000190: 7007 41b7 3033 78b5 002d 4333 7d7c 04b7
000001a0: d40e 3f37 3646 3f36 1364 73b7 80f2 00b8
000001b0: 6a07 8337 7083 adb6 1484 a0b7 0033 31b7
000001c0: 7604 86b7 3f7f a3b5 548a a8b4 e912 5437
000001d0: deb8 d8b6 3c8f 9ab7 93c9 b337 cf1d 72b7
000001e0: 24f7 7936 7236 0b37 5d91 6ab8 1a22 2237
000001f0: cc5f b5b7 1471 9f36 3729 3c36 cee1 8a37

emb.batchnorm.0.running_mean f4 [128]
0.71004087 0.08892209 0.688707 0.3725975 0.75041795 0.24563092 0.42560259 0.4372122
0.4826168 0.8138055 0.5518124 0.2857944 0.42994428 0.5093112 0.35167474 0.30262792
0.45410654 0.46942723 0.58735687 0.5698068 0.24337909 0.8869442 0.44265926 0.27939922
0.3959655 0.5973031 0.60362965 0.6664606 0.5999456 0.54750466 0.51729196 0.43018815
0.52728045 0.45444 0.31745067 0.6462537 0.4367279 0.2973676 0.50181186 0.43817675
0.58658487 0.6982891 0.21975 0.5490875 0.5247867 0.69805634 0.40861535 0.5153092
0.3656645 0.6366202 0.5927069 0.41292933 0.45326686 0.46299186 0.4561774 0.37522566
0.6785174 0.2123497 0.48560935 0.75502676 0.8175987 0.47057313 0.20339555 0.7363356
0.657931 0.66707253 0.5865056 0.34352332 0.62890315 0.5041896 0.4077654 0.54598707
0.8545745 0.71954644 0.46661982 0.50292516 0.35281414 0.71686494 0.57757133 0.56583047
0.5530783 0.68089724 0.68546194 0.5507163 0.33796567 0.45228794 0.62900704 0.79186034
0.5385971 0.4672472 0.56288946 0.5913445 0.6726357 0.67850935 0.42263025 0.7176987
0.14608264 0.3514376 0.6474807 0.5968596 0.67927265 0.4363022 0.4201255 0.4099258
0.17393425 0.7002172 0.48331866 0.75060385 0.77415705 0.83884573 0.57572734 0.710647
0.28848478 0.39845031 0.61133426 0.30535436 0.5107607 0.66734207 0.09002356 0.5188402
0.70540744 0.42419 0.31259182 0.35648167 0.6489965 0.28881338 0.26591575 0.9999774
00000000: 3dc5 353f c91c b63d 1a4f 303f 19c5 be3e
00000010: 641b 403f ac86 7b3e 95e8 d93e 47da df3e
00000020: 8d19 f73e 8f55 503f 9443 0d3f a553 923e
00000030: a821 dc3e 3862 023f b60e b43e 0cf2 9a3e
00000040: a780 e83e c458 f03e 055d 163f dcde 113f
00000050: 5e38 793e c60e 633f 3ca4 e23e 6a0d 8f3e
00000060: fdbb ca3e dbe8 183f 7987 1a3f 299d 2a3f
00000070: 0996 193f 4429 0c3f 3f6d 043f 9f41 dc3e
00000080: dafb 063f 5cac e83e e588 a23e e270 253f
00000090: cd9a df3e 9140 983e be76 003f b458 e03e
000000a0: 6d2a 163f 13c3 323f 2506 613e 0091 0c3f
000000b0: 6c58 063f d2b3 323f 0836 d13e 4eeb 033f
000000c0: 6138 bb3e 8bf9 223f a4bb 173f 796b d33e
000000d0: 9812 e83e 450d ed3e 1690 e93e 941d c03e
000000e0: 51b3 2d3f 3372 593e caa1 f83e 6f49 413f
000000f0: 264e 513f f6ee f03e ec46 503e 7d80 3c3f
00000100: 2b6e 283f 44c5 2a3f 3b25 163f 4ae2 af3e
00000110: ccff 203f 9212 013f a0c6 d03e cfc5 0b3f
00000120: 65c5 5a3f 3234 383f cbe8 ee3e b4bf 003f
00000130: 0ea4 b43e 7684 373f b7db 133f 44da 103f
00000140: 8a96 0d3f 484f 2e3f 6f7a 2f3f befb 0c3f
00000150: d609 ad3e 4992 e73e 9b06 213f 5cb7 4a3f
00000160: 80e1 093f 063b ef3e 8619 103f 5a62 173f
00000170: da31 2c3f cab2 2d3f fe62 d83e 1abb 373f
00000180: b096 153e a1ef b33e 4cc1 253f cacb 183f
00000190: d0e4 2d3f 0163 df3e b11a d73e cbe1 d13e
000001a0: d21b 323e 6f41 333f 8b75 f73e 9327 403f
000001b0: 282f 463f 98be 563f de62 133f f6ec 353f
000001c0: 47b4 933e ae01 cc3e 6780 1c3f 6857 9c3e
000001d0: 37c1 023f eed6 2a3f 465e b83d b6d2 043f
000001e0: 9595 343f 6f2f d93e 090c a03e c484 b63e
000001f0: a224 263f 59df 933e 1c26 883e 85fe 7f3f

emb.batchnorm.0.running_var f4 [128]
0.0013631626 0.0019813501 0.0102177225 0.0054615824 0.011626281 0.016274415 0.014222531 0.018309133
0.023362255 0.024718404 0.028005594 0.030060623 0.025596168 0.027098967 0.020040637 0.026988493
0.032629263 0.021332344 0.03023119 0.024469875 0.028782882 0.017360872 0.03608808 0.031413082
0.034742475 0.046556287 0.03282079 0.039412014 0.04174001 0.037470616 0.052516777 0.043483697
0.044292435 0.048665885 0.032273795 0.036827262 0.047910277 0.03568747 0.0519881 0.04634668
0.048124455 0.041000918 0.033895336 0.06790443 0.052044466 0.03251782 0.04208967 0.042988453
0.05710237 0.05436243 0.05164777 0.05655143 0.055677645 0.058590207 0.04969975 0.048366554
0.049585313 0.04461845 0.057039436 0.048175815 0.04138104 0.059554998 0.04987975 0.04040903
0.06508748 0.060487106 0.05845745 0.05377001 0.06905293 0.07331864 0.064538576 0.056640044
0.024174744 0.06096018 0.058992036 0.05407518 0.054458342 0.06716919 0.06403929 0.0718251
0.060099103 0.06351364 0.058844756 0.07751819 0.06326455 0.057882484 0.07549904 0.04766243
0.07746622 0.081728905 0.08816982 0.07041033 0.07035632 0.064845145 0.07480231 0.070202835
0.037401594 0.06855441 0.06624937 0.07919009 0.075222716 0.088176996 0.07776824 0.07369645
0.043187447 0.07226216 0.07309942 0.0614044 0.056229785 0.04524449 0.10225057 0.078287765
0.069894776 0.091433614 0.09448707 0.078663684 0.08896325 0.07938952 0.026190039 0.10544073
0.08296362 0.11616532 0.08141631 0.089202926 0.11112939 0.107858166 0.09861013 6.938848e-06
00000000: 26ac b23a 8ad9 013b 3c68 273c 13f7 b23b
00000010: 287c 3e3c ec51 853c 9e05 693c 09fd 953c
00000020: 3362 bf3c 407e ca3c fd6b e53c b241 f63c
00000030: 0eaf d13c a7fe dd3c 432c a43c f916 dd3c
00000040: 43a6 053d 2bc1 ae3c 67a7 f73c 0c75 c83c
00000050: 14ca eb3c 6338 8e3c 18d1 133d 01ab 003d
00000060: 204e 0e3d ceb1 3e3d 186f 063d 7e6e 213d
00000070: 93f7 2a3d ca7a 193d d51b 573d f61b 323d
00000080: fc6b 353d e155 473d 8731 043d 2fd8 163d
00000090: 913d 443d 062d 123d 79f1 543d 04d6 3d3d
000000a0: 261e 453d 94f0 273d d6d5 0a3d 7a11 8b3d
000000b0: 942c 553d 6831 053d 3866 2c3d a914 303d
000000c0: 2de4 693d 24ab 5e3d 9d8c 533d 79a2 673d
000000d0: 3e0e 643d 49fc 6f3d f791 4b3d 021c 463d
000000e0: f819 4b3d d6c1 363d 2fa2 693d 0154 453d
000000f0: 2a7f 293d f1ef 733d b54e 4c3d f083 253d
00000100: 964c 853d 54c1 773d 1471 6f3d f13d 5c3d
00000110: 9f6b 8d3d 1528 963d cd2c 843d 64ff 673d
00000120: 1d0a c63c 62b1 793d a2a1 713d f07d 5d3d
00000130: b60f 5f3d 0090 893d 0827 833d 0a19 933d
00000140: 7a2a 763d 7013 823d 3307 713d dbc1 9e3d
00000150: d890 813d 2f16 6d3d 3e9f 9a3d ae39 433d
00000160: 9ca6 9e3d 7c61 a73d 6192 b43d 4b33 903d
00000170: f916 903d 88cd 843d f431 993d 81c6 8f3d
00000180: 6a32 193d 4166 8c3d c0ad 873d 6a2e a23d
00000190: 5e0e 9a3d 2496 b43d f444 9f3d 2aee 963d
000001a0: 52e5 303d 2ffe 933d 26b5 953d 2e83 7b3d
000001b0: 3451 663d 4952 393d bf68 d13d 5655 a03d
000001c0: fe24 8f3d 8c41 bb3d 7082 c13d 6d1a a13d
000001d0: 5d32 b63d f996 a23d 7e8c d63c 4ff1 d73d
000001e0: d5e8 a93d 15e8 ed3d 98bd a63d 06b0 b63d
000001f0: ce97 e33d bee4 dc3d 1cf4 c93d 40d4 e836

emb.batchnorm.1.weight f4 [128]
0.89850724 0.8159048 0.985114 0.7876993 0.8051861 0.88021904 0.8255787 0.81301534
0.94886154 0.81089705 0.8492999 0.80044353 0.86032623 0.91311914 0.86679626 1.0465063
0.9227086 0.79622364 0.9376863 0.8699666 0.87706685 1.0153058 0.9193826 0.8076403
0.80734587 0.94535196 0.82040375 0.80583006 0.87961733 0.87540054 0.86657536 0.9048163
0.7761099 0.88689697 0.94225454 0.79049045 0.970578 0.855774 0.84269017 0.74281996
0.8099238 0.8695229 0.7944901 0.81601596 0.81240827 0.85897446 0.89541394 0.8527058
0.86790514 0.81547034 0.9290094 0.8862052 0.92427105 0.8258518 0.91608196 0.84799105
0.83417994 0.8315109 0.9166711 0.85722387 0.8882946 0.8793125 0.9061183 0.91088384
0.9525061 0.8481073 0.86877763 0.83424693 0.9413679 0.91539794 0.93668336 0.93524534
0.94320726 0.93476784 0.9475103 0.85486966 0.8423938 0.77838904 0.8324926 0.85496724
0.8859648 1.0449767 0.86891115 0.86014533 0.7739446 0.86896753 0.9089187 0.9613585
0.9135913 0.893351 0.82227695 0.8429331 0.73506397 0.922887 0.9256699 0.88489366
0.85661745 0.7382777 0.90598094 0.93938166 0.9293625 0.7782009 0.9034248 0.9040216
0.9478908 0.8071316 0.8726839 0.95603794 0.8673253 1.0263425 0.8362507 0.8037245
0.7354685 0.88499904 0.9009164 0.9932429 0.8116824 0.83135164 0.8851877 0.80874467
0.9544268 0.89498746 0.8761973 0.8387653 0.93044966 0.81516945 0.9324618 0.9052439
00000000: 9204 663f 23df 503f 6e30 7c3f a9a6 493f
00000010: ad20 4e3f 0956 613f 2059 533f c621 503f
00000020: 97e8 723f f396 4f3f b86b 593f dee9 4c3f
00000030: 573e 5c3f 2dc2 693f 5ce6 5d3f ebf3 853f
00000040: a136 6c3f 50d5 4b3f 360c 703f 22b6 5e3f
00000050: 7487 603f 8af5 813f a85c 6b3f 84c1 4e3f
00000060: 38ae 4e3f 9602 723f fb05 523f e14a 4e3f
00000070: 9a2e 613f 401a 603f e2d7 5d3f 0ba2 673f
00000080: 23af 463f ae0b 633f 9837 713f 955d 4a3f
00000090: cd77 783f 0114 5b3f 8bba 573f 7329 3e3f
000000a0: 2b57 4f3f 0e99 5e3f b463 4b3f 6ce6 503f
000000b0: fdf9 4f3f c0e5 5b3f d939 653f ed4a 5a3f
000000c0: 082f 5e3f aac2 503f 8fd3 6d3f 58de 623f
000000d0: 079d 6c3f 066b 533f 5984 6a3f f115 593f
000000e0: d18c 553f e6dd 543f f5aa 6a3f 0673 5b3f
000000f0: 4667 633f a01a 613f 5ef7 673f af2f 693f
00000100: 71d7 733f 8f1d 593f 3668 5e3f 3591 553f
00000110: 7dfd 703f 8557 6a3f 7bca 6f3f 3d6c 6f3f
00000120: 0876 713f f24c 6f3f 0990 723f bdd8 5a3f
00000130: 1fa7 573f 8144 473f 3c1e 553f 22df 5a3f
00000140: 97ce 623f ccc1 853f f670 5e3f 7c32 5c3f
00000150: 3c21 463f a874 5e3f e5ae 683f 971b 763f
00000160: 1fe1 693f a7b2 643f be80 523f 77ca 573f
00000170: 272d 3c3f 5342 6c3f b4f8 6c3f 6488 623f
00000180: 484b 5b3f c4ff 3c3f 5eee 673f 517b 703f
00000190: b3ea 6d3f 2d38 473f d946 673f f66d 673f
000001a0: f9a8 723f 2da0 4e3f 3668 5f3f e7be 743f
000001b0: 0809 5e3f 315f 833f 8714 563f e4c0 4d3f
000001c0: aa47 3c3f 4c8f 623f 75a2 663f 2b45 7e3f
000001d0: 6bca 4f3f 76d3 543f a99b 623f e409 4f3f
000001e0: 5155 743f e61d 653f 774e 603f 53b9 563f
000001f0: f331 6e3f f2ae 503f d1b5 6e3f 10be 673f

emb.batchnorm.1.bias f4 [128]
-0.3518854 -0.3155075 -0.5065079 -0.28439194 -0.47777453 -0.3256596 -0.33921605 -0.2428057
-0.3264859 -0.4063127 -0.33554053 -0.47952276 -0.19154592 -0.2689291 -0.5133372 -0.47789997
-0.32655945 -0.36511016 -0.24700761 -0.38533527 -0.29324695 -0.46775115 -0.20549169 -0.47605887
-0.473083 -0.42569894 -0.56967074 -0.30650282 -0.30481616 -0.3266102 -0.28485593 -0.20632525
-0.6006652 -0.3319387 -0.31026253 -0.27953622 -0.4461506 -0.217638 -0.48137334 -0.34619933
-0.3543833 -0.3821045 -0.36479554 -0.4016856 -0.3038958 -0.57590705 -0.3655848 -0.33281174
-0.3900625 -0.45590565 -0.3331876 -0.58256453 -0.43832427 -0.4489531 -0.40926957 -0.4621436
-0.38634714 -0.25736475 -0.53123206 -0.2785875 -0.331441 -0.33290178 -0.28231788 -0.27551863
-0.21497187 -0.16305195 -0.31913474 -0.43058234 -0.33902413 -0.21961728 -0.35873827 -0.39450446
-0.37878495 -0.23890412 -0.37360507 -0.3950189 -0.33992153 -0.5211669 -0.462627 -0.35607442
-0.38721424 -0.49766254 -0.33838558 -0.34695208 -0.5690103 -0.22052613 -0.3290578 -0.42059192
-0.4300531 -0.42458543 -0.53718114 -0.3667552 -0.47200993 -0.25298533 -0.28692535 -0.36384022
-0.369702 -0.40506452 -0.2346182 -0.32795122 -0.2869307 -0.3831683 -0.33711082 -0.31110263
-0.43898696 -0.5072686 -0.47998172 -0.2409476 -0.4409912 -0.5082888 -0.275614 -0.61082953
-0.38628665 -0.24660425 -0.4820157 -0.377629 -0.34136376 -0.5382423 -0.6542718 -0.3752602
-0.3393267 -0.3573949 -0.2827142 -0.22161072 -0.44911212 -0.39239597 -0.33277765 -0.33019894
00000000: 532a b4be 338a a1be 80aa 01bf d29b 91be
00000010: dd9e f4be dbbc a6be baad adbe 0fa2 78be
00000020: 2929 a7be 3808 d0be f8cb abbe 0284 f5be
00000030: 9d24 44be 13b1 89be 116a 03bf 4eaf f4be
00000040: cd32 a7be b8ef babe 90ef 7cbe aa4a c5be
00000050: 7724 96be 147d efbe 6a6c 52be fdbd f3be
00000060: ef37 f2be 36f5 d9be f1d5 11bf f0ed 9cbe
00000070: dd10 9cbe 7439 a7be a3d8 91be ed46 53be
00000080: 32c5 19bf dff3 a9be bbda 9ebe 5f1f 8fbe
00000090: da6d e4be 7fdc 5ebe 9176 f6be 0a41 b1be
000000a0: ba71 b5be 33a3 c3be 7bc6 babe bca9 cdbe
000000b0: 3b98 9bbe a56e 13bf ee2d bbbe 4d66 aabe
000000c0: 46b6 c7be 776c e9be 9197 aabe f322 15bf
000000d0: 0a6c e0be 2edd e5be c88b d1be 169e ecbe
000000e0: 4bcf c5be 50c5 83be d3fe 07bf 05a3 8ebe
000000f0: a2b2 a9be 1a72 aabe f88b 90be c710 8dbe
00000100: 9621 5cbe 17f7 26be a165 a3be 4a75 dcbe
00000110: 9294 adbe 5ae3 60be 8bac b7be 7dfc c9be
00000120: 1af0 c1be 48a3 74be 2a49 bfbe eb3f cabe
00000130: 320a aebe 326b 05bf 72dd ecbe 634f b6be
00000140: f240 c6be a0cd febe e040 adbe b4a3 b1be
00000150: a9aa 11bf 9ad1 61be 447a a8be d357 d7be
00000160: ec2f dcbe 4363 d9be b484 09bf 56c7 bbbe
00000170: 49ab f1be 4b87 81be e1e7 92be 4449 babe
00000180: 9549 bdbe 9e64 cfbe c13f 70be 39e9 a7be
00000190: 95e8 92be a32e c4be ca99 acbe d848 9fbe
000001a0: e6c2 e0be 5bdc 01bf 2ac0 f5be f8ba 76be
000001b0: 99c9 e1be 371f 02bf 471d 8dbe 535f 1cbf
000001c0: 5dc7 c5be d385 7cbe c3ca f6be 9758 c1be
000001d0: 3bc7 aebe 3fca 09bf 5b7e 27bf 1b22 c0be
000001e0: 3bbc adbe 77fc b6be eabf 90be eced 62be
000001f0: 06f2 e5be 20e8 c8be d561 aabe d60f a9be

emb.batchnorm.1.running_mean f4 [128]
-7.4083796e-06 -2.3790219e-05 -1.37415e-05 1.5561069e-05 4.4011867e-06 2.2197506e-05 -1.1664244e-05 -1.0848148e-05
-1.4352847e-05 -4.5710285e-06 -3.1655961e-06 6.8526406e-06 -1.2026166e-05 -1.8182853e-05 -6.793479e-06 -2.2906712e-05
-1.197053e-06 -2.1561575e-05 1.5001577e-05 -2.950498e-06 -2.2786047e-05 2.3879507e-05 -1.0205583e-06 3.6409847e-06
-2.026589e-05 8.256796e-06 -1.1282996e-05 7.706643e-06 4.1553194e-06 2.8652941e-05 2.0069e-05 7.660932e-06
1.1800887e-08 -3.751654e-06 1.1310791e-05 -1.0801569e-05 -1.4183684e-06 -1.00072e-05 -3.6409157e-05 -1.3142412e-06
-4.5010333e-06 -7.878511e-06 -4.015596e-06 -6.19505e-06 2.122533e-07 -4.2241172e-07 -1.0710397e-05 -6.473515e-06
-1.5804819e-05 9.387507e-06 -2.2037151e-05 -1.5120578e-05 -2.3147386e-06 -1.7925568e-05 2.2331462e-05 1.3622362e-05
1.6326996e-05 1.4768046e-05 -1.9099021e-05 9.5636115e-06 -1.2249903e-05 -2.2804805e-05 -3.8664843e-05 1.7793449e-05
-5.893557e-06 1.9524461e-05 -1.055375e-05 -5.737303e-06 7.935658e-06 7.64449e-06 -1.1999071e-05 -1.0341108e-06
-6.6146918e-06 6.1393666e-06 1.8216191e-05 -1.6245414e-05 2.2244836e-05 -9.554574e-07 -1.5967951e-05 5.31149e-07
-7.4033906e-06 -6.3847483e-06 -1.7106117e-05 1.249295e-05 -2.5736615e-05 8.757304e-06 6.7879314e-06 2.8766674e-06
-1.7697406e-05 1.6651339e-06 7.273517e-07 -2.666428e-06 -7.141269e-06 8.792709e-06 1.3700468e-05 -7.032302e-06
-1.1992725e-05 -2.0691374e-05 -1.22217e-05 3.528767e-06 -2.034466e-05 4.2156375e-05 1.3485853e-05 1.16027074e-07
1.3541149e-05 -9.9526105e-06 5.5842625e-06 7.633464e-06 -6.228964e-06 -4.27827e-05 1.6328766e-05 -1.3337155e-05
1.6310363e-06 1.5752861e-05 -1.489201e-05 2.1058084e-05 1.1872786e-05 -5.895027e-06 -3.9535976e-06 -2.9785175e-05
-9.5579735e-06 3.2333319e-06 -1.865449e-05 -5.009475e-06 2.2033773e-05 2.30979e-06 -1.7669963e-06 -3.8139704e-05
00000000: 7f95 f8b6 1b91 c7b7 4b8b 66b7 2489 8237
00000010: e8ad 9336 c834 ba37 8cb1 43b7 7100 36b7
00000020: 02cd 70b7 d660 99b6 8770 54b6 bcef e536
00000030: fdc3 49b7 6187 98b7 8af3 e3b6 ca27 c0b7
00000040: 6eaa a0b5 21df b4b7 48af 7b37 2b01 46b6
00000050: aa24 bfb7 da50 c837 1efa 88b5 a457 7436
00000060: ab00 aab7 ab86 0a37 194c 3db7 c84b 0137
00000070: ec6d 8b36 b95b f037 d959 a837 7487 0037
00000080: dabc 4a32 edc4 7bb6 7ac3 3d37 6338 35b7
00000090: c45e beb5 99e4 27b7 09b6 18b8 fc64 b0b5
000000a0: 9507 97b6 f22d 04b7 b5bd 86b6 13df cfb6
000000b0: bee7 6334 d3c7 e2b4 ceb0 33b7 1237 d9b6
000000c0: 9794 84b7 097f 1d37 6cdc b8b7 63ae 7db7
000000d0: e856 1bb6 dd5e 96b7 7354 bb37 998b 6437
000000e0: f5f5 8837 46c4 7737 d636 a0b7 6673 2037
000000f0: ef84 4db7 f24c bfb7 0f2c 22b8 2443 9537
00000100: 45c1 c5b6 76c8 a337 0310 31b7 0f83 c0b6
00000110: 6423 0537 d640 0037 9e4f 49b7 c7cb 8ab5
00000120: c5f3 ddb6 c200 ce36 f9ce 9837 c346 88b7
00000130: 6c9a ba37 443d 80b5 eaf2 85b7 4894 0e35
00000140: a46a f8b6 923c d6b6 1b7f 8fb7 d098 5137
00000150: f6e4 d7b7 56ec 1237 e3c3 e336 c50c 4136
00000160: e474 94b7 917d df35 3a3f 4335 e2f0 32b6
00000170: 099f efb6 6684 1337 10db 6537 04f7 ebb6
00000180: 5d34 49b7 6392 adb7 cd0b 4db7 c1cf 6c36
00000190: d3a9 aab7 10d1 3038 4c41 6237 8f2a f933
000001a0: cb2e 6337 23fa 26b7 7360 bb36 7a11 0037
000001b0: 6502 d1b6 9371 33b8 c2f9 8837 a5c2 5fb7
000001c0: fbe9 da35 0325 8437 b2d8 79b7 e4a5 b037
000001d0: 3a31 4737 e5cd c5b6 25a9 84b6 2ddb f9b7
000001e0: 2f5b 20b7 38fc 5836 367c 9cb7 1017 a8b6
000001f0: 2bd5 b837 e401 1b36 8829 edb5 32f8 1fb8

emb.batchnorm.1.running_var f4 [128]
2.089534 2.1900723 1.525123 2.9185386 1.8289518 2.0982378 1.8054178 2.189617
1.8485516 2.3674364 2.3601089 2.3047519 2.4315658 2.1001804 1.9126664 1.5859649
2.961871 2.1027408 2.388839 1.7720878 2.2901826 2.969761 2.6528225 2.1719813
2.288101 2.6053674 1.8089492 2.9805412 1.8142813 3.266777 2.0259922 3.2607727
1.7153767 2.7447925 3.017474 2.106186 2.530018 2.3961673 2.0301573 3.0991228
1.8897289 2.6601057 1.7290651 1.8105668 2.4463196 3.1873577 2.7321835 1.7967013
2.0061975 2.1098285 2.2400398 1.8774701 1.9043554 1.9261734 2.2707443 2.2538157
2.710521 2.2519655 2.2707121 2.3430972 2.1342287 2.6821628 2.434823 2.5503678
2.1636245 2.2104979 2.3885486 1.2064102 1.9371672 2.2567825 1.7197124 2.0343294
2.5742846 2.059732 2.626305 2.5126843 1.703068 1.7641447 2.1526265 2.1958685
1.6371952 1.9762667 2.5429897 1.702972 2.1610217 2.4074388 2.544557 2.2108917
1.562283 2.7379098 1.8941629 2.5329823 1.905396 2.6976893 2.281825 2.5062802
1.8472989 1.8551685 2.114093 2.9690466 1.9811059 2.507693 2.5211253 2.6200643
3.7298255 2.4873576 2.646122 1.7880223 1.8023013 2.1919274 1.6963863 1.8286318
1.9948885 2.0479498 1.9616203 1.5210881 1.8560237 2.5721807 1.1380002 2.6569915
1.9319837 2.4127457 2.6065502 2.522441 1.7915934 2.1316361 2.270944 2.6829052
00000000: edba 0540 252a 0c40 3b37 c33f 56c9 3a40
00000010: 181b ea3f 8749 0640 ee17 e73f af22 0c40
00000020: 579d ec3f 1484 1740 060c 1740 0e81 1340
00000030: c69e 1b40 5b69 0640 41d2 f43f e600 cb3f
00000040: 4b8f 3d40 4e93 0640 bde2 1840 c6d3 e23f
00000050: 5a92 1240 9010 3e40 d8c7 2940 be01 0b40
00000060: 3f70 1240 57be 2640 a68b e73f 30c1 3e40
00000070: 5f3a e83f e012 5140 dba9 0140 80b0 5040
00000080: 7791 db3f aeaa 2f40 4b1e 4140 c0cb 0640
00000090: d1eb 2140 ce5a 1940 19ee 0140 0758 4640
000000a0: a3e2 f13f 2c3f 2a40 0152 dd3f a7c0 e73f
000000b0: 8090 1c40 abfd 4b40 18dc 2e40 4ffa e53f
000000c0: 8a65 0040 6e07 0740 d05c 0f40 f150 f03f
000000d0: ebc1 f33f da8c f63f e053 1140 843e 1040
000000e0: 2d79 2d40 3420 1040 5953 1140 4ef5 1540
000000f0: 3497 0840 8ea8 2b40 24d4 1b40 3a39 2340
00000100: d378 0a40 cc78 0d40 fbdd 1840 a66b 9a3f
00000110: 18f5 f73f 206f 1040 891f dc3f 7432 0240
00000120: 14c1 2440 a6d2 0340 6215 2840 d2cf 2040
00000130: 22fe d93f 7ecf e13f a2c4 0940 1c89 0c40
00000140: 9d8f d13f 4ff6 fc3f 58c0 2240 fdfa d93f
00000150: 2e4e 0a40 7a13 1a40 06da 2240 407f 0d40
00000160: e4f8 c73f ea39 2f40 ee73 f23f 621c 2240
00000170: 04e4 f33f f1a6 2c40 6c09 1240 e566 2040
00000180: 4a74 ec3f 2976 ed3f 4d4d 0740 dc04 3e40
00000190: e194 fd3f 0b7e 2040 1e5a 2140 22af 2740
000001a0: 76b5 6e40 de30 1f40 105a 2940 eadd e43f
000001b0: cfb1 e63f 8a48 0c40 3023 d93f 9b10 ea3f
000001c0: 8258 ff3f 9c11 0340 6016 fb3f 04b3 c23f
000001d0: 2f92 ed3f 9c9e 2440 fea9 913f 260c 2a40
000001e0: 3e4b f73f 6d6a 1a40 b8d1 2640 ac6f 2140
000001f0: ef52 e53f ba6c 0840 2657 1140 b8b4 2b40

emb.batchnorm.2.weight f4 [128]
0.9696119 0.93787503 0.9077101 1.0031826 0.8655273 0.8714288 1.0352632 0.85323197
0.87211245 0.9045426 0.88658446 1.0337467 0.9729542 0.99140984 0.77135885 0.8743661
0.9096388 0.982155 0.9053399 0.9441893 0.93637407 1.0007625 0.9147094 0.91554326
0.8428807 0.9660899 0.9500652 0.9266563 0.9212546 0.86582154 0.8505659 0.95501256
0.97845453 0.9442596 0.86766934 0.93262124 0.8390024 0.8193245 0.77406573 0.8281791
0.92634654 0.88543046 0.9131332 0.9034199 0.9855638 0.87703216 0.91683465 0.9624916
0.93416977 0.8657218 0.835141 0.8783485 0.87621623 0.89793974 0.92994475 0.7988682
0.8196963 0.8472773 0.8755118 0.86325127 0.9902328 0.8851869 0.95099777 0.9257901
1.0033393 0.8735455 0.83074844 0.9109719 0.97833604 0.888807 0.93675417 0.9498459
0.96080977 0.81358564 0.9020898 0.83629936 0.8344663 0.9051387 0.97415304 0.82985747
0.8491236 0.8839052 0.87415606 0.9196483 0.8572666 0.8208669 0.8921469 0.8748421
0.95555353 0.8837808 0.86006546 0.90823364 0.9751396 1.0093284 1.0042496 0.88538396
0.90815836 0.9184832 0.9346163 0.83905613 0.954576 0.9276169 0.9019381 0.882466
0.95086336 0.9536411 0.8587225 0.9161608 1.0099803 0.8914489 0.9268637 1.009943
0.8192346 0.8748073 0.9192624 0.9643038 0.89535767 0.93226516 0.967574 0.93555254
0.8849215 1.0064266 0.97522134 0.83435977 0.88461214 0.8664404 0.8133117 0.84792197
00000000: 7c38 783f 9418 703f b05f 683f 4a68 803f
00000010: 3293 5d3f f515 5f3f 8183 843f 696d 5a3f
00000020: c342 5f3f 1b90 673f 33f7 623f d051 843f
00000030: 8713 793f 09cd 7d3f c677 453f 75d6 5f3f
00000040: 17de 683f 836e 7b3f 5bc4 673f 64b6 713f
00000050: 36b6 6f3f fc18 803f 652a 6a3f 0b61 6a3f
00000060: 08c7 573f ab51 773f 7937 733f 5939 6d3f
00000070: 57d7 6b3f 7ba6 5d3f b0be 593f b47b 743f
00000080: ff7b 7a3f ffba 713f 941f 5e3f 44c0 6e3f
00000090: dcc8 563f 40bf 513f 2c29 463f 8c03 543f
000000a0: 0c25 6d3f 92ab 623f 19c3 693f 8746 673f
000000b0: e94d 7c3f 2e85 603f adb5 6a3f d965 763f
000000c0: c025 6f3f f29f 5d3f cdcb 553f 73db 603f
000000d0: b54f 603f 61df 653f dc10 6e3f a082 4c3f
000000e0: 9ed7 513f 2ae7 583f 8b21 603f 09fe 5c3f
000000f0: e67f 7d3f 9c9b 623f 9774 733f 9400 6d3f
00000100: 6c6d 803f aea0 5f3f eeab 543f 7435 693f
00000110: 3b74 7a3f db88 633f 1fcf 6f3f 1a29 733f
00000120: a1f7 753f 2647 503f 5bef 663f b717 563f
00000130: 959f 553f 2bb7 673f 1862 793f 8a71 543f
00000140: 2a60 593f 9c47 623f b1c8 5f3f 126e 6b3f
00000150: d375 5b3f 5524 523f bd63 643f a7f5 5f3f
00000160: 289f 743f 753f 623f 402d 5c3f 0082 683f
00000170: c0a2 793f ac31 813f 408b 803f 86a8 623f
00000180: 117d 683f b721 6b3f 0443 6f3f 62cc 563f
00000190: 185f 743f 4d78 6d3f 6ae5 663f 4be9 613f
000001a0: c86b 733f d321 743f 3dd5 5b3f 8489 6a3f
000001b0: 0947 813f ff35 643f f046 6d3f d045 813f
000001c0: 5cb9 513f 5ff3 5f3f c854 6b3f 9ddc 763f
000001d0: 2936 653f eea8 6e3f eeb2 773f 5f80 6f3f
000001e0: 378a 623f 96d2 803f 1ba8 793f 9a98 553f
000001f0: f175 623f 0acf 5d3f 3235 503f 6a11 593f

emb.batchnorm.2.bias f4 [128]
-0.1453323 0.0028114512 -0.068045914 -0.110348806 -0.24348727 -0.27197394 -0.13800828 -0.2254491
-0.017731868 0.07133078 -0.0436157 -0.22617535 -0.22827946 -0.25388464 -0.19460031 -0.32886922
-0.07954798 -0.18360473 -0.4167927 -0.08332716 -0.087088205 -0.05818431 -0.20328334 -0.10035278
-0.278184 -0.14719339 -0.16939744 -0.319771 -0.23517247 -0.28514114 -0.22020707 -0.36360615
-0.09130221 -0.2854197 -0.035119977 -0.0029751186 -0.25425383 -0.21673566 -0.20399055 -0.046392765
-0.4032226 -0.2371311 -0.24607003 -0.3233136 -0.13414368 -0.23278522 -0.15619975 -0.2445142
-0.079993606 0.016201977 -0.08535753 -0.27974764 -0.15678556 -0.009146635 -0.06782441 -0.21737628
-0.4394935 -0.0061502624 0.056263775 -0.12886028 -0.1843634 -0.12359421 -0.10562051 -0.02232195
-0.102816105 -0.31558123 -0.3996947 -0.031144386 -0.13098331 -0.14107037 -0.09561104 -0.18140116
-0.20115657 -0.102859184 -0.17094782 -0.19377463 -0.14488798 -0.16175444 -0.1925554 -0.3413841
-0.20025353 -0.3114737 -0.2613867 -0.13431977 -0.006665007 -0.032150134 -0.27843592 -0.12202363
-0.19134997 -0.12365819 -0.07940782 -0.32206032 -0.19644001 -0.15313947 -0.08745368 -0.2237858
-0.23883173 0.10717407 -0.30779228 -0.17027904 -0.1953002 -0.20112404 0.018689899 -0.023951491
-0.14815092 -0.29741254 -0.30504692 -0.14760408 -0.1575158 -0.23051243 -0.18111001 -0.061898075
-0.014744959 -0.33758843 -0.11030966 -0.2175566 -0.17842051 -0.36100385 0.03960366 0.045358457
-0.20209242 -0.19758473 -0.2462996 0.052321106 -0.51118547 -0.17126857 0.006244321 -0.32666302
00000000: fed1 14be 5340 383b a85b 8bbd 8efe e1bd
00000010: ba54 79be 2b40 8bbe 0b52 0dbe 21dc 66be
00000020: 6c42 91bc df15 923d 60a6 32bd 839a 67be
00000030: 17c2 69be 2bfd 81be 4e45 47be 8c61 a8be
00000040: 0dea a2bd e102 3cbe da65 d5be 6ea7 aabd
00000050: 4d5b b2bd ac52 6ebd 8229 50be c285 cdbd
00000060: 226e 8ebe ddb9 16be 8676 2dbe 06b9 a3be
00000070: 0dd1 70be 05fe 91be f67d 61be 962a babe
00000080: a7fc babd 8822 92be f7d9 0fbd 35fa 42bb
00000090: 8f2d 82be f4ef 5dbe e6e2 50be 5706 3ebd
000000a0: 3173 cebe 7fd2 72be c8f9 7bbe 5c89 a5be
000000b0: f65c 09be 405f 6ebe d4f2 1fbe ee61 7abe
000000c0: b0d3 a3bd 02ba 843c eecf aebd 153b 8fbe
000000d0: 658c 20be c5db 15bc 86e7 8abd e397 5ebe
000000e0: 4b05 e1be 2488 c9bb d874 663d f3f3 03be
000000f0: c2c9 3cbe f61e fdbd 914f d8bd 86dc b6bc
00000100: 4091 d2bd dd93 a1be c9a4 ccbe 8322 ffbc
00000110: 7d20 06be c074 10be b9cf c3bd 3ac1 39be
00000120: fdfb 4dbe d6a7 d2bd f20c 2fbe db6c 46be
00000130: 845d 14be f5a2 25be 3e2d 45be e6c9 aebe
00000140: 430f 4dbe 7b79 9fbe 7ad4 85be 1f8b 09be
00000150: 2266 dabb dcaf 03bd 278f 8ebe 86e7 f9bd
00000160: 3ff1 43be 8140 fdbd 91a0 a2bd 17e5 a4be
00000170: 9227 49be 98d0 1cbe ea1a b3bd 1b28 65be
00000180: 4e90 74be 147e db3d f396 9dbe a15d 2ebe
00000190: c7fc 47be 76f3 4dbe 8f1b 993c eb35 c4bc
000001a0: e0b4 17be 7546 98be 1c2f 9cbe 8625 17be
000001b0: d24b 21be 730b 6cbe e774 39be d688 7dbd
000001c0: d794 71bc 64d8 acbe 08ea e1bd 28c7 5ebe
000001d0: deb3 36be 7fd5 b8be 7337 223d cac9 393d
000001e0: 51f1 4ebe a753 4abe f635 7cbe a84e 563d
000001f0: 0ddd 02bf 0761 2fbe 299d cc3b 6040 a7be
